…
', '!!!!!!1', 'qudea', 'zro2', 'government-organization', 'sustainingly', '18701954600', 'no\xe2\x80\xa6', 'case..', 'href="http://www.representativepress.org/israelhistory.html">']
Mean length 10.7277818359
Max length 71
Filtered
175
Final train data shape
(8214, 30, 15)
(8214, 30)

____________________________________________________________________________________________________
Layer (type)                     Output Shape          Param #     Connected to
====================================================================================================
input_1 (InputLayer)             (None, 30)            0
____________________________________________________________________________________________________
input_2 (InputLayer)             (None, 30)            0
____________________________________________________________________________________________________
input_3 (InputLayer)             (None, 30)            0
____________________________________________________________________________________________________
input_4 (InputLayer)             (None, 30)            0
____________________________________________________________________________________________________
embedding_1 (Embedding)          (None, 30, 100)       698500
____________________________________________________________________________________________________
input_5 (InputLayer)             (None, 30, 5)         0
____________________________________________________________________________________________________
input_6 (InputLayer)             (None, 30, 6)         0
____________________________________________________________________________________________________
concatenate_1 (Concatenate)      (None, 30, 411)       0
____________________________________________________________________________________________________
lstm_1 (LSTM)                    (None, 30, 1024)      5881856
____________________________________________________________________________________________________
time_distributed_1 (TimeDistribu (None, 30, 5)         5125
====================================================================================================
Total params: 6,585,481.0
Trainable params: 5,886,981.0
Non-trainable params: 698,500.0


Guidelines:
Min: 0.166667
Max: 0.700000
Arithm. mean 0.415282200899
Harm. mean 0.376777007074
Global smatch f-score 0.415519399249
32/38 [========================>.....] - ETA: 0s
38/38 [==============================] - 0s
…
